# parameters
nc: 1  # number of classes
depth_multiple: 0.33  # model depth multiple
width_multiple: 0.50  # layer channel multiple

# anchors
anchors:
  - [10,13, 16,30, 33,23]  # P3/8
  - [30,61, 62,45, 59,119]  # P4/16
  - [116,90, 156,198, 373,326]  # P5/32

# YOLOv5 backbone
backbone:
  # Two Stream
  # [from, repeats, module, args]
  - [-1, 1, Conv, [64, 3, 2]] # 0-P1/2
  - [-1, 1, Conv, [128, 3, 2]] # 1-P2/4
  - [-1, 3, C2f, [128, True]]
  - [-1, 1, Conv, [256, 3, 2]] # 3-P3/8
  - [-1, 6, C2f, [256, True]]
  - [-1, 1, Conv, [512, 3, 2]] # 5-P4/16
  - [-1, 6, C2f, [512, True]]
  - [-1, 1, Conv, [1024, 3, 2]] # 7-P5/32
  - [-1, 3, C2f, [1024, True]]
  - [-1, 1, SPPF, [1024, 5]] # 9

  # [from, repeats, module, args]
  - [-11, 1, Conv, [64, 3, 2]] # 10-P1/2
  - [-1, 1, Conv, [128, 3, 2]] # 11-P2/4
  - [-1, 3, C2f, [128, True]]
  - [-1, 1, Conv, [256, 3, 2]] # 13-P3/8
  - [-1, 6, C2f, [256, True]]
  - [-1, 1, Conv, [512, 3, 2]] # 15-P4/16
  - [-1, 6, C2f, [512, True]]
  - [-1, 1, Conv, [1024, 3, 2]] # 17-P5/32
  - [-1, 3, C2f, [1024, True]]
  - [-1, 1, SPPF, [1024, 5]] # 19

    ######### Fusion Block #############
  - [[4,14], 1, Add, [1]]    # 20 two stream fuse
  - [[6,16], 1, Add, [1]]    # 21 two stream fuse
  - [[9,19], 1, Add, [1]]    # 22 two stream fuse

# YOLOv8.0s head
head:
  - [-1, 1, nn.Upsample, [None, 2, "nearest"]]
  - [[-1, 21], 1, Concat, [1]] # cat backbone P4
  - [-1, 3, C2f, [512]] # 25

  - [-1, 1, nn.Upsample, [None, 2, "nearest"]]
  - [[-1, 20], 1, Concat, [1]] # cat backbone P3
  - [-1, 3, C2f, [256]] # 28 (P3/8-small)

  - [-1, 1, Conv, [256, 3, 2]]
  - [[-1, 25], 1, Concat, [1]] # cat head P4
  - [-1, 3, C2f, [512]] # 31 (P4/16-medium)

  - [-1, 1, Conv, [512, 3, 2]]
  - [[-1, 22], 1, Concat, [1]] # cat head P5
  - [-1, 3, C2f, [1024]] # 34 (P5/32-large)
 
  - [-11, 1, IAM, [[64, 64]]]
  - [[28, 31, 34], 1, Detect, [nc, anchors]] # Detect(P3, P4, P5)